…
        "videos": "../datasets/qvhighlights/videos/processed"
    },
    "val": {
        "annotations": {
            "../datasets/qvhighlights/annotations/processed/highlight_val_release.json": 200
        },
        "videos": "../datasets/qvhighlights/videos/processed"
    }
}
==========================================================
Total training steps: 82
DistributedDataParallel(
  (module): PeftModel(
    (base_model): LoraModel(
      (model): XGenMMPerceiver(
        (vision_encoder): SiglipVisionTransformer(
          (embeddings): SiglipVisionEmbeddings(
            (patch_embedding): Conv2d(3, 1152, kernel_size=(14, 14), stride=(14, 14), padding=valid)
            (position_embedding): Embedding(729, 1152)
          )
          (encoder): SiglipEncoder(
            (layers): ModuleList(
              (0-26): 27 x SiglipEncoderLayer(
                (layer_norm1): LayerNorm((1152,), eps=1e-06, elementwise_affine=True)
                (self_attn): SiglipAttention(
                  (k_proj): Linear(in_features=1152, out_features=1152, bias=True)
                  (v_proj): Linear(in_features=1152, out_features=1152, bias=True)
                  (q_proj): Linear(in_features=1152, out_features=1152, bias=True)
                  (out_proj): Linear(in_features=1152, out_features=1152, bias=True)
                )
                (layer_norm2): LayerNorm((1152,), eps=1e-06, elementwise_affine=True)
                (mlp): SiglipMLP(
                  (activation_fn): PytorchGELUTanh()
                  (fc1): Linear(in_features=1152, out_features=4304, bias=True)
                  (fc2): Linear(in_features=4304, out_features=1152, bias=True)
                )
              )
            )
          )
          (post_layernorm): LayerNorm((1152,), eps=1e-06, elementwise_affine=True)
          (head): SiglipMultiheadAttentionPoolingHead(
            (attention): MultiheadAttention(
              (out_proj): NonDynamicallyQuantizableLinear(in_features=1152, out_features=1152, bias=True)
            )
            (layernorm): LayerNorm((1152,), eps=1e-06, elementwise_affine=True)
            (mlp): SiglipMLP(
              (activation_fn): PytorchGELUTanh()
              (fc1): Linear(in_features=1152, out_features=4304, bias=True)
              (fc2): Linear(in_features=4304, out_features=1152, bias=True)
            )
          )
        )
        (vision_tokenizer): CheckpointWrapper(
          (_checkpoint_wrapped_module): PerceiverResampler(
            (projection): lora.Linear(
              (base_layer): Linear(in_features=1152, out_features=3072, bias=True)
              (lora_dropout): ModuleDict(
                (default): Dropout(p=0.05, inplace=False)
              )
              (lora_A): ModuleDict(
                (default): Linear(in_features=1152, out_features=16, bias=False)
              )
              (lora_B): ModuleDict(
                (default): Linear(in_features=16, out_features=3072, bias=False)
              )
              (lora_embedding_A): ParameterDict()
              (lora_embedding_B): ParameterDict()
              (lora_magnitude_vector): ModuleDict()
            )
            (layers): ModuleList(
              (0-5): 6 x ModuleList(
                (0): PerceiverAttention(
                  (norm_media): LayerNorm((1152,), eps=1e-05, elementwise_affine=True)
                  (norm_latents): LayerNorm((1152,), eps=1e-05, elementwise_affine=True)
                  (to_q): lora.Linear(
                    (base_layer): Linear(in_features=1152, out_features=1536, bias=False)
                    (lora_dropout): ModuleDict(
                      (default): Dropout(p=0.05, inplace=False)
                    )
                    (lora_A): ModuleDict(
                      (default): Linear(in_features=1152, out_features=16, bias=False)
                    )
                    (lora_B): ModuleDict(
                      (default): Linear(in_features=16, out_features=1536, bias=False)
                    )
                    (lora_embedding_A): ParameterDict()
                    (lora_embedding_B): ParameterDict()
                    (lora_magnitude_vector): ModuleDict()
                  )
                  (to_kv): lora.Linear(
                    (base_layer): Linear(in_features=1152, out_features=3072, bias=False)
                    (lora_dropout): ModuleDict(
                      (default): Dropout(p=0.05, inplace=False)
                    )
                    (lora_A): ModuleDict(
                      (default): Linear(in_features=1152, out_features=16, bias=False)
                    )
                    (lora_B): ModuleDict(
                      (default): Linear(in_features=16, out_features=3072, bias=False)
                    )
                    (lora_embedding_A): ParameterDict()
                    (lora_embedding_B): ParameterDict()
                    (lora_magnitude_vector): ModuleDict()
                  )
                  (to_out): lora.Linear(
                    (base_layer): Linear(in_features=1536, out_features=1152, bias=False)
                    (lora_dropout): ModuleDict(
                      (default): Dropout(p=0.05, inplace=False)
                    )
                    (lora_A): ModuleDict(
                      (default): Linear(in_features=1536, out_features=16, bias=False)
                    )
                    (lora_B): ModuleDict(
                      (default): Linear(in_features=16, out_features=1152, bias=False)
                    )
                    (lora_embedding_A): ParameterDict()
                    (lora_embedding_B): ParameterDict()
                    (lora_magnitude_vector): ModuleDict()
                  )
                )
                (1): Sequential(
                  (0): LayerNorm((1152,), eps=1e-05, elementwise_affine=True)
                  (1): lora.Linear(
                    (base_layer): Linear(in_features=1152, out_features=4608, bias=False)
                    (lora_dropout): ModuleDict(
                      (default): Dropout(p=0.05, inplace=False)
                    )
                    (lora_A): ModuleDict(
                      (default): Linear(in_features=1152, out_features=16, bias=False)
                    )
                    (lora_B): ModuleDict(
                      (default): Linear(in_features=16, out_features=4608, bias=False)
                    )
                    (lora_embedding_A): ParameterDict()
                    (lora_embedding_B): ParameterDict()
                    (lora_magnitude_vector): ModuleDict()
                  )
                  (2): GELU(approximate='none')
                  (3): lora.Linear(
                    (base_layer): Linear(in_features=4608, out_features=1152, bias=False)
                    (lora_dropout): ModuleDict(
                      (default): Dropout(p=0.05, inplace=False)
                    )
                    (lora_A): ModuleDict(
                      (default): Linear(in_features=4608, out_features=16, bias=False)
                    )
                    (lora_B): ModuleDict(
                      (default): Linear(in_features=16, out_features=1152, bias=False)
                    )
                    (lora_embedding_A): ParameterDict()
                    (lora_embedding_B): ParameterDict()
                    (lora_magnitude_vector): ModuleDict()
                  )
                )
              )
            )
            (norm): LayerNorm((1152,), eps=1e-05, elementwise_affine=True)
          )
        )
        (lang_model): Phi3ForCausalLM(
          (model): Phi3Model(
            (embed_tokens): DecoupledEmbedding(
              num_original_embeddings=32012, num_additional_embeddings=3, embedding_dim=3072, partially_freeze=True
              (additional_embedding): Embedding(3, 3072)
            )
            (layers): ModuleList(
              (0-31): 32 x CheckpointWrapper(
                (_checkpoint_wrapped_module): Phi3DecoderLayer(
                  (self_attn): Phi3Attention(
                    (o_proj): lora.Linear(
                      (base_layer): Linear(in_features=3072, out_features=3072, bias=False)
                      (lora_dropout): ModuleDict(
                        (default): Dropout(p=0.05, inplace=False)
                      )
                      (lora_A): ModuleDict(
                        (default): Linear(in_features=3072, out_features=16, bias=False)
                      )
                      (lora_B): ModuleDict(
                        (default): Linear(in_features=16, out_features=3072, bias=False)
                      )
                      (lora_embedding_A): ParameterDict()
                      (lora_embedding_B): ParameterDict()
                      (lora_magnitude_vector): ModuleDict()
                    )
                    (qkv_proj): lora.Linear(
                      (base_layer): Linear(in_features=3072, out_features=9216, bias=False)
                      (lora_dropout): ModuleDict(
                        (default): Dropout(p=0.05, inplace=False)
                      )
                      (lora_A): ModuleDict(
                        (default): Linear(in_features=3072, out_features=16, bias=False)
                      )
                      (lora_B): ModuleDict(
                        (default): Linear(in_features=16, out_features=9216, bias=False)
                      )
                      (lora_embedding_A): ParameterDict()
                      (lora_embedding_B): ParameterDict()
                      (lora_magnitude_vector): ModuleDict()
                    )
                  )
                  (mlp): Phi3MLP(
                    (gate_up_proj): lora.Linear(
                      (base_layer): Linear(in_features=3072, out_features=16384, bias=False)
                      (lora_dropout): ModuleDict(
                        (default): Dropout(p=0.05, inplace=False)
                      )
                      (lora_A): ModuleDict(
                        (default): Linear(in_features=3072, out_features=16, bias=False)
                      )
                      (lora_B): ModuleDict(
                        (default): Linear(in_features=16, out_features=16384, bias=False)
                      )
                      (lora_embedding_A): ParameterDict()
                      (lora_embedding_B): ParameterDict()
                      (lora_magnitude_vector): ModuleDict()
                    )
                    (down_proj): lora.Linear(
                      (base_layer): Linear(in_features=8192, out_features=3072, bias=False)
                      (lora_dropout): ModuleDict(
                        (default): Dropout(p=0.05, inplace=False)
                      )
                      (lora_A): ModuleDict(
                        (default): Linear(in_features=8192, out_features=16, bias=False)
                      )
                      (lora_B): ModuleDict(
                        (default): Linear(in_features=16, out_features=3072, bias=False)
                      )
                      (lora_embedding_A): ParameterDict()
                      (lora_embedding_B): ParameterDict()
                      (lora_magnitude_vector): ModuleDict()
                    )
                    (activation_fn): SiLU()
                  )
                  (input_layernorm): Phi3RMSNorm((3072,), eps=1e-05)
…
