…
            "../datasets/qvhighlights/annotations/processed/highlight_train_release.json": 1000
        },
        "videos": "../datasets/qvhighlights/videos/processed"
    },
    "val": {
        "annotations": {
            "../datasets/qvhighlights/annotations/processed/highlight_val_release.json": 200
        },
        "videos": "../datasets/qvhighlights/videos/processed"
    }
}
==========================================================
Total training steps: 124
DistributedDataParallel(
  (module): XGenMMPerceiver(
    (vision_encoder): SiglipVisionTransformer(
      (embeddings): SiglipVisionEmbeddings(
        (patch_embedding): Conv2d(3, 1152, kernel_size=(14, 14), stride=(14, 14), padding=valid)
        (position_embedding): Embedding(729, 1152)
      )
      (encoder): SiglipEncoder(
        (layers): ModuleList(
          (0-26): 27 x SiglipEncoderLayer(
            (layer_norm1): LayerNorm((1152,), eps=1e-06, elementwise_affine=True)
            (self_attn): SiglipAttention(
              (k_proj): Linear(in_features=1152, out_features=1152, bias=True)
              (v_proj): Linear(in_features=1152, out_features=1152, bias=True)
              (q_proj): Linear(in_features=1152, out_features=1152, bias=True)
              (out_proj): Linear(in_features=1152, out_features=1152, bias=True)
            )
            (layer_norm2): LayerNorm((1152,), eps=1e-06, elementwise_affine=True)
            (mlp): SiglipMLP(
              (activation_fn): PytorchGELUTanh()
              (fc1): Linear(in_features=1152, out_features=4304, bias=True)
              (fc2): Linear(in_features=4304, out_features=1152, bias=True)
            )
          )
        )
      )
      (post_layernorm): LayerNorm((1152,), eps=1e-06, elementwise_affine=True)
      (head): SiglipMultiheadAttentionPoolingHead(
        (attention): MultiheadAttention(
          (out_proj): NonDynamicallyQuantizableLinear(in_features=1152, out_features=1152, bias=True)
        )
        (layernorm): LayerNorm((1152,), eps=1e-06, elementwise_affine=True)
        (mlp): SiglipMLP(
          (activation_fn): PytorchGELUTanh()
          (fc1): Linear(in_features=1152, out_features=4304, bias=True)
          (fc2): Linear(in_features=4304, out_features=1152, bias=True)
        )
      )
    )
    (vision_tokenizer): CheckpointWrapper(
      (_checkpoint_wrapped_module): PerceiverResampler(
        (projection): Linear(in_features=1152, out_features=3072, bias=True)
        (layers): ModuleList(
          (0-5): 6 x ModuleList(
            (0): PerceiverAttention(
              (norm_media): LayerNorm((1152,), eps=1e-05, elementwise_affine=True)
              (norm_latents): LayerNorm((1152,), eps=1e-05, elementwise_affine=True)
              (to_q): Linear(in_features=1152, out_features=1536, bias=False)
              (to_kv): Linear(in_features=1152, out_features=3072, bias=False)
              (to_out): Linear(in_features=1536, out_features=1152, bias=False)
            )
            (1): Sequential(
              (0): LayerNorm((1152,), eps=1e-05, elementwise_affine=True)
              (1): Linear(in_features=1152, out_features=4608, bias=False)
              (2): GELU(approximate='none')
              (3): Linear(in_features=4608, out_features=1152, bias=False)
            )
          )
        )
        (norm): LayerNorm((1152,), eps=1e-05, elementwise_affine=True)
      )
    )
    (lang_model): Phi3ForCausalLM(
      (model): Phi3Model(
        (embed_tokens): DecoupledEmbedding(
          num_original_embeddings=32012, num_additional_embeddings=3, embedding_dim=3072, partially_freeze=False
          (additional_embedding): Embedding(3, 3072)
        )
        (layers): ModuleList(
          (0-31): 32 x CheckpointWrapper(
            (_checkpoint_wrapped_module): Phi3DecoderLayer(
              (self_attn): Phi3Attention(
                (o_proj): Linear(in_features=3072, out_features=3072, bias=False)
                (qkv_proj): Linear(in_features=3072, out_features=9216, bias=False)
              )
              (mlp): Phi3MLP(
                (gate_up_proj): Linear(in_features=3072, out_features=16384, bias=False)
                (down_proj): Linear(in_features=8192, out_features=3072, bias=False)
                (activation_fn): SiLU()
              )
              (input_layernorm): Phi3RMSNorm((3072,), eps=1e-05)
              (post_attention_layernorm): Phi3RMSNorm((3072,), eps=1e-05)
              (resid_attn_dropout): Dropout(p=0.0, inplace=False)
              (resid_mlp_dropout): Dropout(p=0.0, inplace=False)
            )
          )
        )
        (norm): Phi3RMSNorm((3072,), eps=1e-05)
        (rotary_emb): Phi3RotaryEmbedding()
      )
      (lm_head): DecoupledLinear(
        in_features=3072, out_features=32012, additional_out_features=3, bias=True, partially_freeze=False
        (additional_fc): Linear(in_features=3072, out_features=3, bias=True)
      )
    )
  )
)
Start running training on rank 0.
  0%|          | 0/2000 [00:00<?, ?it/s]  0%|          | 0/2000 [00:00<?, ?it/s]
Traceback (most recent call last):
  File "/workspace/moment-retrieval-with-llm/LAVIS/open_flamingo/train/instruction_finetune.py", line 299, in <module>
    main()
  File "/workspace/moment-retrieval-with-llm/LAVIS/open_flamingo/train/instruction_finetune.py", line 281, in main
…
